trained_models/encoder_Source-only.pt (torch, 165151 bytes, 4 tensors)

extractor.0.weight f4 [32, 3, 5, 5]
00000000: 718a b1bd 678e 4e3d bd62 d6bd c2e4 d83b
00000010: b5e6 543c 1019 41bd b59d aebd d2ac 7ebd
00000020: 35e4 8abd 7c09 20bd e1dc e73d 65dc cd3d
00000030: 9428 04bd 7286 e73c 85b9 3d3d e451 463d
00000040: de7d e7bd 3f2f 1fbc 3858 9abc f883 a3bd
00000050: 8fed a3bd 3e7b bcbd 9b46 eb3c e495 e9ba
00000060: 1597 c63d 2ab7 bdbd 18f8 91bd aac5 4ebc
00000070: 6fc4 d6bd eca3 9abd c361 793c 6c0f 37bd
00000080: 673f e8bd 2b94 67bd d867 51bd 4196 bcbd
00000090: 2fc5 4a3a 68b2 13bd f081 b03c 5849 a73c
000000a0: f0d2 9f3d e6fd c33d 815f abbc f9b9 7e3d
000000b0: 67d6 a7bd b2d5 723d d649 82bd c3c2 d8bd
000000c0: 41c8 13bd be74 26bd 28e3 88bd c6cf 86bd
000000d0: 3c6f 81bd cc5d 3bbd 9fae f73c 3926 8d3d
000000e0: e52f 90bc b9ef fcbc c4a0 34bd 8acc 623d
000000f0: 1bd8 b3bb 65ed cf3c c730 95bd c7b9 d2bd
00000100: 9eea 443c e2b3 c83c 549a 2cbc 6bc1 763c
00000110: fa62 09bd fb2c 89bd 7927 fc3c df44 b0bd
00000120: fcb1 a7bd 43ed d13d dad6 5ebd 2b9d 913d
00000130: c698 70bb a07e 59bd 1443 99bd 6ee9 183d
00000140: df45 b33d a4db 00be 3f2a 3e3d 6050 55bd
00000150: 3879 b2bd dbb1 dcbc 1d31 1e3c dcb3 77bc
00000160: 0deb 163b fc7e 88bd de2c 69bd 339d aabd
00000170: adef b1bd d78b dabd 643c fabb 8eae dfbd
00000180: efde e93c dd56 a7bd 6e78 9e3d aed4 3a3d
00000190: b3eb 0fbd 5469 4f3c 830c 7d3d 5072 09bc
000001a0: 4084 0e3e 465b cb3d 73cd 8a3d d6be 023e
000001b0: 2460 133e fe4d c43b 9904 d13d 82db 803d
000001c0: 193f ad3d b5d8 36bd a657 02bd a563 94bd
000001d0: 9614 8a3d 0918 043e a98d 8b3d a13c b63d
000001e0: 88d7 0a3e 7075 fc3d 7bb4 073d b74f 103e
000001f0: c244 753c 9725 b3bd b010 5bbd 7457 05bd
00000200: adfc 9a3d 354a 523d 7ca8 e03d 5f7f 42bd
00000210: e0ea 733d 0637 5dbd 7c67 e73d 46d0 823d
00000220: 20bd eb3d c315 07bd 9d86 9f3d 9c54 a8bd
00000230: 4894 dc3d d796 bbbd c7b8 003e 5176 50bd
00000240: 2b7d c1bd 3837 893d 1120 b43d d157 bfbc
00000250: 8a89 89bd 4a09 b63d 1453 f7bd 599c 05bd
00000260: 3e9e afbd 53dc dfbd 0e8d 9a3d b218 213d
00000270: 3ae4 f6bd 6a2b 3eba f13c 50bd da23 513d
00000280: 6116 fabd c5a3 66bd 1acd 093d c980 063d
00000290: ab30 763d fa93 42bc 64f6 93bd 8dcd 5cbd
000002a0: 170e 20bd 759e b63d e4ab 503d 5bfd 103d
000002b0: 4cf2 aa3d 2bf1 913d db1b 25bd f8db 01bd
000002c0: 9517 443c 37e4 183e 714c 9bba 6fcd eb3d
000002d0: 4aaa 01bd 9c8a 29bd d130 80bd 4a8c 663c
000002e0: 3fe4 d03d 0e6d e63d 31dd 063e d7db d03d
000002f0: 7d3f aa3d 6fcd 9a3d 1fbe 0d3e 54df 183e
00000300: 131b 163e 5d89 8c3d 7412 6f3d 492a 163d
00000310: faa8 ad3d 3257 923d 1ffd f03d 4524 073e
00000320: 5b43 e3bd 55d2 eebd 42f9 233d 327f 01be
00000330: f270 153c 72d4 203d 0849 6e3d 4b01 1b3d
00000340: 77a3 65bd 0869 9fbc 85d3 23bd 7146 0dbd
00000350: 1b07 3b3d da4a eebd dc6c 713d c5c1 a3bc
00000360: 1bfe 0dbc 2146 6f3d 63e4 083a ee95 88bd
00000370: 88ba 983d d1ce 14bd f324 c2bd 2e41 ecbd
00000380: 1e57 23bd ed7a 033e 65a7 183c d008 913c
00000390: d808 e93d a1f4 79bc 3591 213d a52a c8bd
000003a0: ae0c 8d3d 2221 c2bc ff7e 003d 7ae6 163d
000003b0: d84a dd3c b835 49b9 d1d4 583d 773f e53d
000003c0: a84e 523d f2c2 cabb 64c7 8cbd d30a cc3d
000003d0: af75 f23c eb84 9c3a 11ba 253a b1c5 533d
000003e0: 62ad 72bc 8fe1 adbd 8786 21bc 04e8 4d3c
000003f0: 4c0f 953d e338 893c d96f df3d b0f7 c4bd
-0.08668984 0.050428774 -0.104680516 0.006619067 0.012994458 -0.047143042 -0.08526174 -0.062176533
-0.06781808 -0.039071545 0.11321426 0.100518025 -0.03226526 0.02826235 0.046319503 0.04841794
-0.11303304 -0.009715854 -0.018840894 -0.079841554 -0.08004295 -0.09203194 0.02872019 -0.001782116
0.09696785 -0.092634514 -0.07127398 -0.012620369 -0.104866855 -0.07550797 0.015221062 -0.04469244
-0.11340218 -0.05653779 -0.051124424 -0.09208346 0.0007735071 -0.036058813 0.021546334 0.020420715
0.07803905 0.09569912 -0.020919563 0.062189076 -0.08195191 0.059285827 -0.06361739 -0.10584023
-0.03607965 -0.040638678 -0.066839516 -0.065825984 -0.063200444 -0.04574375 0.030234633 0.06892056
-0.017600963 -0.030876027 -0.04409863 0.055370845 -0.0054884083 0.025381753 -0.07284694 -0.102893405
0.012018828 0.024499837 -0.010534842 0.015060763 -0.033541657 -0.066980325 0.03078054 -0.08606886
-0.08188245 0.10250332 -0.054404117 0.071100555 -0.0036712154 -0.053099275 -0.07483497 0.03733199
0.08753561 -0.12583786 0.046427008 -0.052078605 -0.08714527 -0.026940277 0.009655264 -0.015118565
0.0023028285 -0.06664845 -0.056927554 -0.083307646 -0.08688293 -0.106712036 -0.0076365937 -0.109219655
0.028548686 -0.08170865 0.07737814 0.045612983 -0.03513689 0.0126593895 0.06177951 -0.008389071
0.13917637 0.099295184 0.067774676 0.1276811 0.14392143 0.0059907427 0.10205955 0.06291868
0.084593005 -0.04464026 -0.03182187 -0.07245568 0.06742208 0.12899794 0.06814129 0.08898283
0.13558781 0.12327087 0.033131104 0.14092909 0.014970006 -0.08747404 -0.05348271 -0.032554105
0.07567725 0.0513403 0.10969636 -0.04748475 0.059550166 -0.054007553 0.11299035 0.06387381
0.11510682 -0.032979738 0.07789347 -0.08219263 0.1077047 -0.0915963 0.12570487 -0.050894085
-0.09447702 0.06699985 0.08795179 -0.023357304 -0.067156866 0.088884905 -0.12076393 -0.032619808
-0.08575104 -0.109306954 0.07546435 0.039330192 -0.120552495 -0.0007254394 -0.05083937 0.05105958
-0.122113 -0.056308527 0.033642866 0.032837663 0.060105007 -0.011876101 -0.0722473 -0.053906966
-0.039075937 0.08916942 0.050945178 0.03539787 0.08346996 0.07126077 -0.04030977 -0.03170392
0.011968513 0.14930807 -0.0011848343 0.11513793 -0.03165654 -0.041391954 -0.06259311 0.014071533
0.101997845 0.11251269 0.13170315 0.10198181 0.08312891 0.075587146 0.13842057 0.14928943
0.14658765 0.068621375 0.058367208 0.03666142 0.08479495 0.071455374 0.11767029 0.1319743
-0.110968314 -0.116612114 0.040032633 -0.12646177 0.009121167 0.039265104 0.058175117 0.03784303
-0.056064095 -0.019459262 -0.039996643 -0.034491006 0.045661073 -0.116353706 0.058941707 -0.019989857
-0.0086665405 0.05841649 0.00052220206 -0.06669222 0.07457453 -0.036330048 -0.09479704 -0.115358695
-0.039878003 0.12839861 0.009317254 0.017704397 0.1137864 -0.015256078 0.03944512 -0.09773759
0.06887184 -0.02369744 0.031371113 0.036840893 0.027013227 -0.00019188866 0.052937333 0.111937456
0.051344544 -0.00618779 -0.06873968 0.09963002 0.029597132 0.0011941468 0.00063219765 0.051702205
-0.0148118455 -0.084902875 -0.009858734 0.012567524 0.07278308 0.016750759 0.10910005 -0.09617555

extractor.0.bias f4 [32]
00000000: d28e 723c 256c 6ebe c177 02be 6885 083e
00000010: 0d6a 88bc a5d0 bdbd f45e 00be bfe8 e8bd
00000020: 4e3d acbd a9a1 c7bc c250 b03d 6470 c5bd
00000030: 07b4 bcbd 8f67 ec3d 809d cabd 88ea 413d
00000040: e099 313d 9771 2fbe e211 6ebd 3816 f83d
00000050: 07bc a4bd df21 b4bd 05a4 263e 1b27 04bd
00000060: 516a 18bc ed2e f3bd cd33 17be 2b7a 1dbe
00000070: 3dee 883c d494 b1bd fa02 2bbd 6217 37be
0.014804559 -0.23283441 -0.12740995 0.1333214 -0.016652131 -0.092683114 -0.12536222 -0.11372518
-0.084101304 -0.024369078 0.08609153 -0.096405774 -0.09214025 0.1154319 -0.09893322 0.047342807
0.043359637 -0.17133175 -0.058122523 0.12113613 -0.08043676 -0.08795523 0.16273506 -0.032263856
-0.009302692 -0.11874185 -0.14765854 -0.15378635 0.016715163 -0.08670965 -0.041750886 -0.17880014

extractor.3.weight f4 [48, 32, 5, 5]
00000000: 1fe6 c9bc 0f77 dcbc de88 5abc efd2 903c
00000010: d5c7 cf3c 4e9c 843c b774 dc3c 61a0 89bc
00000020: 93dd 633c d28a ed3c 484d 6a3c bb8c fbbc
00000030: 3b75 23bb 8367 e73c 8d95 00bd 0e2e bfba
00000040: 0034 9abc 8940 c2bc 3be7 f13c c184 debc
00000050: 0e6c 3c3c ecd3 293c 85ea 1b3c 399e a53c
00000060: e30f 95bb cd55 26bd 3be4 dd3c 9062 a83c
00000070: ebdf ecbc 4d43 c7bc 28e5 7fbc 1472 3fbb
00000080: 7531 20bd 8fb3 1dbc f071 263c 5303 933c
00000090: 098a 0cbd 177d d1bc 9047 e73c 4ff7 683c
000000a0: af99 f1bb 3e0d 1cbd b28d 93bc f559 933c
000000b0: 0b05 20bc d038 04bd 4677 dcbc da55 9bbb
000000c0: 3501 4cbc 0d14 d9bc 2d35 fabc 58d0 0fbd
000000d0: 45ba 12bd 82a9 18bd 1c11 ca3c 40a9 5a3c
000000e0: d9bd 03bd e936 5b3c 825e fb3c 6baf 73bb
000000f0: 5263 b53c 7afe e03c fbb1 b73c 2862 033d
00000100: bf8c 9d3b 5798 e53c 1860 9fbc b3ef f93c
00000110: d496 5d3c 89b9 c2bc 15a3 60bb 8126 e73c
00000120: 08df 0fbd bd3e ba3c a252 7d3c 5031 dcba
00000130: 8b7d 50bc cd92 093d 0d4b 9e3c 6dcc c63c
00000140: bcd2 023d 455d 90bb 2445 b23a e7b6 06bb
00000150: 1b11 883c 0add f8b9 1309 ea3c a720 eebc
00000160: 0acc 053d 39b3 22bc 2c89 e23b 1f7f 36bc
00000170: 7338 c8bc b301 3c3c c8df 43bc 3fb5 3fbb
00000180: f62c 463c f723 2fbc a922 313c 0250 f03c
00000190: 16ef 07bc 66fe 97bc ef78 d13c a9d1 4ebc
000001a0: 8b02 203c d90a 7b3c 1982 46bc 8739 dcbb
000001b0: fb86 27bc dd37 7dbc 7d93 a9bb 41fc 1b3c
000001c0: 6d7a fd3c 2ffc 943c fafb ef3b 760f e9bc
000001d0: b650 e6bc 1b66 013d c3b2 863c 6303 62bc
000001e0: 0967 7e3a d1f3 053d 5977 01bd 60ce 5c3c
000001f0: 5c34 22bc 653d 923c 5c58 823b 2fb6 353b
00000200: a585 c7bc 4c8a d0bc da59 183d 9fcb ff3c
00000210: e23c 4a3c f5eb bfbb b976 083d 873c d8bc
00000220: 974f abbc 9894 d13c 06ad d93b 5892 0c3d
00000230: 1876 05bd 4c6e eebb 0138 f83c 3be3 643b
00000240: 976a 01bd 7ab6 c9bc d2dd 0a3d 4c2f 0b3c
00000250: 6599 193d dcae ec3c ea54 7b3c d401 153b
00000260: 38fb d3bc 856d 483b a078 06bd bc77 2ebd
00000270: 5427 a6bc f947 cdbc 99de a0bc 1686 8e3c
00000280: e915 bd3b 7882 d3bc 5f19 1c3a 1b94 233c
00000290: 72fa f9bc 6209 993a 4713 653c ca50 a6bc
000002a0: 5f63 3cbd 6ed9 483c c3cf 3fbc 0787 1e3c
000002b0: ea41 a33a d5a9 52bc 9879 0cbd 1139 933c
000002c0: bf6c 473c 5108 bb3b 3554 053c 3871 563c
000002d0: 2cfe eb3c 2379 73bc 3514 803c 59ee 4fbb
000002e0: 2740 cbbc d831 0d3d 2cba c23c 9f46 b73c
000002f0: a3e3 bf3c 0874 f23c b29b 3d3b 58ff 8ebb
00000300: 9897 f33c 9389 a93c e392 063d fe0f cc3c
00000310: ddb9 dfbc 9941 e63b 4f97 debc 0d87 49bc
00000320: 8e4e a03c b842 083d 0bc1 fabc 3d06 0e3d
00000330: 55d9 c3bc 3094 91bb dc4f cc3b 5888 b63c
00000340: 8c97 d7bb f5cc a9bc 250a d4bc 0565 c1bc
00000350: 92d3 02bd f22e e13c b619 4d3c a4c5 083d
00000360: f7db a43c 2e67 b93c 1aa2 083d 9caa 87bc
00000370: aaae cb3c 71ef d8bc 24c2 b6bc 6a4c c0bc
00000380: 381a b6b8 8768 c7bc 362f de3c 798a 07bd
00000390: dd6a 0b3c 8a7e d7bb 957d 65bc c0ae 0dbd
000003a0: 8ca8 c9bc 69bc c73c 4392 af3a d254 c03a
000003b0: 7df1 dc3c 763f 473c 61da 47bb baf9 763c
000003c0: f073 713c 5026 933b a491 75bb ad68 b2ba
000003d0: 3783 f3bc 2be2 91bc 0061 d73c 75c3 d4ba
000003e0: e08c 0c3d 9aae d43c 9b99 37bc 38f6 acbc
000003f0: 02cc b3bc 5bd5 b53c 731f dabc 21ee 0cbd
-0.024645863 -0.02691224 -0.013338296 0.017678706 0.025363842 0.016187813 0.026911123 -0.016800107
0.013907808 0.028996859 0.014300652 -0.030706754 -0.00249417 0.0282476 -0.031392623 -0.0014585869
-0.018823624 -0.023712413 0.029529205 -0.027162911 0.011500372 0.0103654675 0.009516363 0.020217048
-0.004549013 -0.04060917 0.027086368 0.02055481 -0.028915366 -0.024324084 -0.0156186 -0.0029212283
-0.039109666 -0.00962533 0.010159001 0.017945921 -0.034311328 -0.025572343 0.028232366 0.014219119
-0.007373057 -0.038098566 -0.018011902 0.01798723 -0.009766827 -0.032280743 -0.026912343 -0.004740459
-0.01245146 -0.026498819 -0.030542934 -0.0351108 -0.03582217 -0.03727103 0.024666362 0.013346016
-0.032163475 0.013379791 0.030684713 -0.0037183415 0.022142086 0.027465094 0.022423735 0.03207603
0.004808038 0.028026743 -0.019455 0.030509805 0.01352473 -0.02377011 -0.0034276892 0.028216602
-0.03512481 0.022734994 0.015461596 -0.0016799364 -0.012725244 0.033587266 0.019322896 0.0242674
0.031939253 -0.00440565 0.0013600928 -0.0020555796 0.016609719 -0.00047466933 0.02856878 -0.029068304
0.03266529 -0.009930425 0.006913325 -0.0111387065 -0.02444098 0.0114750145 -0.011955209 -0.0029252318
0.01209568 -0.010689727 0.010811486 0.029335026 -0.008296749 -0.018553924 0.025570361 -0.012623229
0.009766231 0.0153224105 -0.012115979 -0.006720725 -0.010225053 -0.015455213 -0.0051750527 0.009520591
0.030942166 0.018186657 0.007323739 -0.028449755 -0.028114658 0.031591516 0.016442662 -0.013794753
0.00097046845 0.032703225 -0.03160796 0.013476938 -0.009900179 0.01785154 0.0039778184 0.0027726998
-0.024355719 -0.02545657 0.037195064 0.031225024 0.012343617 -0.0058569857 0.033316348 -0.02639605
-0.020911975 0.02558355 0.0066429405 0.03431925 -0.032583326 -0.007276332 0.030300142 0.003492548
-0.031595793 -0.024623144 0.03390295 0.008495163 0.037499804 0.028891973 0.015340069 0.0022736685
-0.025876626 0.0030582857 -0.03282988 -0.042594656 -0.020282425 -0.025058733 -0.019637393 0.017397922
0.005770434 -0.025819048 0.00059547083 0.009984042 -0.03051493 0.001167577 0.013981647 -0.020302195
-0.045993205 0.0122588705 -0.011707249 0.009675748 0.0012455557 -0.012857874 -0.03429565 0.017971547
0.012171923 0.0057077785 0.008137752 0.013088517 0.028807722 -0.014860424 0.015634635 -0.003172776
-0.024810864 0.034471363 0.023770414 0.022372542 0.023423975 0.029596344 0.0028931913 -0.0043639354
0.029735371 0.020695483 0.032854926 0.02490997 -0.027310306 0.007026863 -0.027171759 -0.012300265
0.019568708 0.033266753 -0.030609628 0.034673918 -0.023907343 -0.004442714 0.006235106 0.02228181
-0.006579345 -0.020727614 -0.025883744 -0.02360774 -0.03194005 0.027488206 0.012518337 0.03339161
0.020124419 0.022632208 0.033357717 -0.016560845 0.02486356 -0.026481362 -0.02230937 -0.023473937
-8.68332e-05 -0.024341835 0.027122121 -0.033091042 0.008509365 -0.006576364 -0.014006992 -0.034590483
-0.024616502 0.024381833 0.001339503 0.0014673716 0.02697062 0.012161126 -0.0030495154 0.015074188
0.014737114 0.004490651 -0.0037470842 -0.0013611518 -0.029725654 -0.01780804 0.02629137 -0.0016232567
0.034314036 0.025962163 -0.011206056 -0.0211135 -0.021947864 0.022196462 -0.026626324 -0.034406785

extractor.3.bias f4 [48]
00000000: 7d3d 2fbc f84d 26bd 909c fcb9 fe3d dabc
00000010: 8eb8 33bc 7c08 42bd 445d cebc 6aca 35bc
00000020: 83b9 bfbc c18b 07be 9fb2 2ebd 5d74 1bbd
00000030: 4628 053d 7748 32bd e30f 753b 5b2b 88bd
00000040: 935c 12bb 47f5 de3c eff6 a13c 0457 a0bb
00000050: 3b7d 0bbd 9cc0 2cbc f044 aa3c 5eaa 563d
00000060: 9123 cb3b 55b0 f5bc 5dd4 123d bbfc 293d
00000070: e55a 4dbd a3f5 db3c 5cf5 573d ce36 8a3b
00000080: bca8 57bd e851 89bd 1ada 54bd 7771 9ebd
00000090: b23b 80bd 3c39 c03c 8c3f efbc 8e7e 17bd
000000a0: 3e88 623c 480d 103c 4666 00bd ed41 71bc
000000b0: a4f9 a53c 52e0 07bc 9ff6 35bc cd45 b7bb
-0.010695812 -0.0406017 -0.00048181834 -0.026640888 -0.010969294 -0.047371373 -0.025190957 -0.011095623
-0.023403889 -0.13236906 -0.042650815 -0.03795277 0.03250911 -0.04352614 0.0037393502 -0.066488944
-0.002233301 0.027216567 0.019771067 -0.0048931856 -0.034054976 -0.0105439685 0.020784825 0.05240857
0.006199308 -0.029991308 0.035847057 0.04150079 -0.050135512 0.026850527 0.052724227 0.004217959
-0.052651152 -0.067050755 -0.05196581 -0.077364855 -0.06261386 0.023464791 -0.029205106 -0.036985926
0.013826428 0.008792229 -0.031347536 -0.014725191 0.02026064 -0.008293228 -0.011106162 -0.0055930377
