trained_models/encoder_DANN.pt (torch, 165151 bytes, 4 tensors)

extractor.0.weight f4 [32, 3, 5, 5]
0	0xbda6d42b	-0.081459366
1	0x3d64319f	0.055711385
2	0xbdcc1abf	-0.09966039
3	0x3c4329a4	0.011911783
4	0x3c93f2c2	0.018060092
5	0xbd30a826	-0.04312911
6	0xbda6603d	-0.08123825
7	0xbd6f5d6a	-0.058438696
8	0xbd829f44	-0.06378034
9	0xbd107280	-0.035265446
10	0x3de96568	0.11396295
11	0x3dcf6562	0.10126759
12	0xbd027e61	-0.031858806
13	0x3ceda3aa	0.029008705
14	0x3d4008b3	0.046883296
15	0x3d412206	0.047151588
16	0xbdea0be6	-0.11428051
17	0xbc393686	-0.011304503
18	0xbca45b4e	-0.020063069
19	0xbda66355	-0.08124415
20	0xbda91217	-0.082554035
21	0xbdc1a978	-0.09456152
22	0x3cd3c385	0.025850067
23	0xbb8d9072	-0.0043201977
24	0x3dc11ee3	0.09429719
25	0xbdbc153c	-0.09183738
26	0xbd9039bb	-0.07042261
27	0xbc3d3862	-0.011549087
28	0xbdd425fe	-0.10358809
29	0xbd97dac2	-0.074147716
30	0x3c8216f1	0.01588008
31	0xbd341bfd	-0.043972004
32	0xbde6667a	-0.112500146
33	0xbd630422	-0.055423863
34	0xbd4ca407	-0.049961116
35	0xbdbb0c4f	-0.09133207
36	0x3ad0ff8f	0.0015945303
37	0xbd0f8c36	-0.035045825
38	0x3cba7a02	0.022763256
39	0x3cb19bad	0.021680677
40	0x3da032c0	0.0782218
41	0x3dc474f2	0.09592618
42	0xbca869f6	-0.020558339
43	0x3d807cc7	0.062737994
44	0xbda6ba48	-0.08140999
45	0x3d70b9af	0.05877083
46	0xbd83630e	-0.064153776
47	0xbdd9ac59	-0.10628576
48	0xbd14eb27	-0.03635707
49	0xbd27c30f	-0.040957507
50	0xbd8d60f7	-0.0690326
51	0xbd8b691c	-0.068071574
52	0xbd8593ad	-0.065223075
53	0xbd439e76	-0.047758542
54	0x3ce75855	0.028240362
55	0x3d884eeb	0.066556774
56	0xbca41915	-0.020031491
57	0xbd07a996	-0.033120714
58	0xbd3ddb81	-0.046351913
59	0x3d599ecf	0.053129967
60	0xbc16e748	-0.009210415
61	0x3cb155f0	0.021647424
62	0xbd9c70f3	-0.07638731
63	0xbdda06ff	-0.10645866
64	0x3c0a6114	0.008445997
65	0x3ca2a5f0	0.019854516
66	0xbc797b74	-0.015227187
67	0x3c2c94cc	0.010533523
68	0xbd1c0c6a	-0.038097776
69	0xbd929bda	-0.071586326
70	0x3ccc2b58	0.024923012
71	0xbdbc89e7	-0.0920599
72	0xbdb39aa6	-0.08769731
73	0x3dc5e5f6	0.09663002
74	0xbd7738c2	-0.060356863
75	0xbc2e2941	-0.010629953
76	0xbdb143bf	-0.086555
77	0xbe0bfea8	-0.13671362
78	0xbe23339f	-0.1593766
79	0xbd3c2e0a	-0.045942344
80	0x3b9ad609	0.004725222
81	0xbe56df41	-0.20983602
82	0xbd1cf324	-0.038317814
83	0xbe0d170f	-0.13778327
84	0xbe2fb57a	-0.17159072
85	0xbde0da15	-0.10979096
86	0xbd987532	-0.07444228
87	0xbdccbcd4	-0.099969536
88	0xbdab0596	-0.08350675
89	0xbe1ad8aa	-0.15121713
90	0xbe0f6491	-0.14003207
91	0xbe2bb624	-0.167687
92	0xbe302b5c	-0.1720404
93	0xbe4575c3	-0.19283204
94	0xbdbd8f69	-0.09255869
95	0xbe44bd4f	-0.1921284
96	0xbd640d91	-0.055677
97	0xbe2ab283	-0.1666966
98	0xbc0c7cc2	-0.008574666
99	0xbd2052ce	-0.03914147
100	0xbd8da6b2	-0.0691656
101	0xbcb3e314	-0.021958865
102	0x3cdc9bf3	0.026929831
103	0xbd3576c8	-0.04430273
104	0x3dd80942	0.10548641
105	0x3d842633	0.064525984
106	0x3d04de91	0.03243882
107	0x3dbca66e	0.092114314
108	0x3ddbb81b	0.10728475
109	0xbce8c40e	-0.028413799
110	0x3d88e0ad	0.066834785
111	0x3cde40e9	0.027130561
112	0x3d4718d4	0.048607662
113	0xbda73e40	-0.0816617
114	0xbd887708	-0.066633284
115	0xbddf1228	-0.10892135
116	0x3cf8e4e6	0.030382585
117	0x3dbbf988	0.09178454
118	0x3cf4fb7d	0.029905075
119	0x3d58f200	0.052965164
120	0x3dc91d4a	0.098200396
121	0x3daecd9d	0.08535311
122	0xbba12445	-0.0049176537
123	0x3dd0a9e9	0.10188658
124	0xbcb2ce9d	-0.021827037
125	0xbe0d99cf	-0.13828205
126	0xbdd713cb	-0.10501822
127	0xbdab8fa3	-0.08377006
128	0x3cc8359f	0.024439631
129	0x3ac0797b	0.0014684642
130	0x3d7bee55	0.061506588
131	0xbdc526fd	-0.09626577
132	0x3c3655ee	0.011128886
133	0xbdd1aa2f	-0.10237538
134	0x3d871d0a	0.06597336
135	0x3c935214	0.017983474
136	0x3d8cb481	0.06870366
137	0xbda1ad11	-0.07894338
138	0x3d032ace	0.032023244
139	0xbe01c0c8	-0.12671196
140	0x3d820940	0.063494205
141	0xbe0b7944	-0.13620478
142	0x3da71907	0.081590705
143	0xbdc24992	-0.09486689
144	0xbe0c58c6	-0.1370574
145	0x3cc9e308	0.02464439
146	0x3d398466	0.04529228
147	0xbd860628	-0.06544143
148	0xbddf486c	-0.10902485
149	0x3d463b80	0.048396587
150	0xbe39ce51	-0.1814511
151	0xbdbd3006	-0.09237675
152	0xbe145943	-0.14487176
153	0xbe2baf76	-0.16766152
154	0x3c9487dd	0.01813119
155	0xbcb4a636	-0.022051912
156	0xbe39669b	-0.18105547
157	0xbd7810e6	-0.06056299
158	0xbde128b2	-0.1099409
159	0xbbe47dc7	-0.0069730016
160	0xbe3c8725	-0.18410929
161	0xbdf081d1	-0.117435105
162	0xbcdbfee7	-0.026854945
163	0xbcdc58b2	-0.026897762
164	0x3ab80cf4	0.0014041946
165	0xbd9745c3	-0.07386353
166	0xbe089a3d	-0.13340087
167	0xbdea54da	-0.114419654
168	0xbdca7b4f	-0.098868005
169	0x3cf964d0	0.030443579
170	0xbc39e5b5	-0.01134627
171	0xbcd5dc45	-0.02610601
172	0x3cb8e4f0	0.022570103
173	0x3c35ae17	0.01108887
174	0xbdcba602	-0.09943773
175	0xbda195ca	-0.07889898
176	0xbd0d8887	-0.03455403
177	0x3dd12f5d	0.10214112
178	0xbd47c7b6	-0.048774444
179	0x3d89b939	0.067247815
180	0xbda0fec9	-0.078610964
181	0xbdb39be2	-0.08769967
182	0xbde04b12	-0.109518185
183	0xbd088a1c	-0.033334836
184	0x3d5e3a21	0.054254655
185	0x3d83b7de	0.06431554
186	0x3dac5a96	0.084157154
187	0x3d5c4bed	0.053783346
188	0x3d0d2313	0.034457278
189	0x3cd93771	0.026515694
190	0x3dba8b19	0.09108562
191	0x3dd217a9	0.10258419
192	0x3dcb3c27	0.099235825
193	0x3ca9c3f1	0.020723315
194	0x3c249d2d	0.010047239
195	0xbc2209f7	-0.009890071
196	0x3d1f3395	0.03886755
197	0x3ccbb293	0.024865424
198	0x3d907071	0.070526965
199	0x3dacb662	0.08433224
200	0xbe4d8bd5	-0.20072873
201	0xbe548549	-0.20753969
202	0xbd577595	-0.05260237
203	0xbe60c6fa	-0.21950904
204	0xbdad01d3	-0.084476136
205	0xbd4bc483	-0.049747955
206	0xbd0330b3	-0.032028865
207	0xbd5d6270	-0.054048955
208	0xbe17f8bb	-0.14840977
209	0xbde628dd	-0.11238263
210	0xbe044053	-0.12915163
211	0xbdff8db2	-0.12478198
212	0xbd3dee83	-0.04637004
213	0xbe55d645	-0.20882519
214	0xbd0be126	-0.034150265
215	0xbddbcb0e	-0.10732089
216	0xbdc70230	-0.09717214
217	0xbd024359	-0.03180251
218	0xbdb8ba70	-0.09019935
219	0xbe21d5ab	-0.15804164
220	0xbc2da446	-0.010598248
221	0xbdfb2634	-0.12263146
222	0xbe3b40d5	-0.1828645
223	0xbe50d2ae	-0.20392868
224	0xbe043c56	-0.12913641
225	0x3e1382c8	0.14405358
226	0x3ca0c0a8	0.019623116
227	0x3c9d4936	0.019199949
228	0x3de42cd3	0.11141362
229	0xbccab445	-0.024744162
230	0x3d44d3a1	0.048053388
231	0xbdc26a7e	-0.09492968
232	0x3d7e9aca	0.062159337
233	0xbd0ce7a5	-0.0344006
234	0x3c580fe9	0.013187387
235	0x3d182c60	0.037151694
236	0x3cac8fea	0.021064717
237	0xbc873654	-0.016505398
238	0x3d041ba6	0.03225293
239	0x3dab02fd	0.08350179
240	0x3d421f09	0.04739288
241	0xbc891558	-0.01673381
242	0xbdb966cd	-0.09052811
243	0x3d96659a	0.07343598
244	0xbb9eeb0d	-0.0048497976
245	0xbc40c88b	-0.011766563
246	0xbc9e1946	-0.01929916
247	0x3ca34deb	0.019934615
248	0xbd521de0	-0.051298022
249	0xbe04e4fc	-0.12977976
250	0xbd755d3f	-0.05990338
251	0xbd0d2dcf	-0.034467515
252	0x3cc149cc	0.02359476
253	0xbcf62962	-0.03004903
254	0x3d80c9f7	0.06288522
255	0xbe15b772	-0.1462076

extractor.0.bias f4 [32]
0	0x3dfe49bc	0.124164075
1	0xbeff07f6	-0.4981076
2	0xbea8f584	-0.32999814
3	0x3e5bb61f	0.21456192
4	0xbc9a2146	-0.018814694
5	0xbfafdd13	-1.3739341
6	0xbf6d00f5	-0.92579585
7	0xbde78fdd	-0.113067366
8	0xbe47ec46	-0.19523725
9	0xbce1e462	-0.027574722
10	0x3e157e33	0.14598922
11	0xbdc57064	-0.096405774
12	0xbec906eb	-0.3926309
13	0xbc0d37b1	-0.008619235
14	0xbe2bc846	-0.16775617
15	0x3e7abce2	0.24486116
16	0xbf09433f	-0.53618234
17	0xbe9f15cd	-0.3107132
18	0xbd72085e	-0.05909001
19	0xbd0719f3	-0.03298373
20	0xbe82c71c	-0.25542533
21	0xbdb41c26	-0.087944314
22	0x3de03918	0.1094839
23	0x3e0b4f0e	0.13604376
24	0x3c9ce3b7	0.019151552
25	0xbea0a513	-0.31375942
26	0xbedcf3db	-0.43154797
27	0xbe2ff1e0	-0.17182112
28	0xbe0379cd	-0.12839432
29	0xbdb1616a	-0.086611584
30	0xbd287577	-0.04112765
31	0xbf3b4342	-0.731495

extractor.3.weight f4 [48, 32, 5, 5]
0	0xbcc9ef21	-0.024650158
1	0xbcdc86a7	-0.026919676
2	0xbc5aa968	-0.013346054
3	0x3c90bc2e	0.017667856
4	0x3ccfb1dd	0.025353367
5	0x3c848fd7	0.01618187
6	0x3cdc654d	0.026903773
7	0xbc8998c9	-0.016796486
8	0x3c63e11f	0.0139086535
9	0x3ced8a9c	0.028996758
10	0x3c6a4f93	0.014301199
11	0xbcfb9f92	-0.030715737
12	0xbb246f09	-0.0025090596
13	0x3ce72d1a	0.028219748
14	0xbd00ba11	-0.031427447
15	0xbabf58c9	-0.0014598604
16	0xbc9a3ee8	-0.018828824
17	0xbcc24d8d	-0.02371862
18	0x3cf1cd9e	0.029516991
19	0xbcdea0c9	-0.027176278
20	0x3c3c5f61	0.0114973495
21	0x3c29b702	0.010358574
22	0x3c1bc8e9	0.00950835
23	0x3ca58359	0.020204233
24	0xbb958680	-0.004563153
25	0xbd3d7d18	-0.046261877
26	0x3caf2856	0.021381538
27	0x3c7499d2	0.014929252
28	0xbd0cb35d	-0.03435074
29	0xbcf192e6	-0.029488992
30	0xbcac43fd	-0.021028513
31	0xbc0974bf	-0.008389651
32	0xbd361be2	-0.044460185
33	0xbc724745	-0.0147875
34	0x3babe171	0.0052453806
35	0x3c4a6e7a	0.012355441
36	0xbd239ec3	-0.03994633
37	0xbcfe8802	-0.031070713
38	0x3cbbda7c	0.02293133
39	0x3c16ee83	0.009212139
40	0xbc499fc8	-0.012306161
41	0xbd306f20	-0.043074727
42	0xbcbb353c	-0.022852533
43	0x3c5a0850	0.013307646
44	0xbc690d2d	-0.014224333
45	0xbd1702fe	-0.036868088
46	0xbd0133a3	-0.031543385
47	0xbc174264	-0.009232137
48	0xbc89d907	-0.01682712
49	0xbcfb97f2	-0.030712102
50	0xbd4b6542	-0.049657114
51	0xbd5e3a9a	-0.054255106
52	0xbd605bfc	-0.054775223
53	0xbd6543c2	-0.055972822
54	0x3bcccd57	0.0062500644
55	0xbb9e14cc	-0.0048242565
56	0xbd4de4ad	-0.05026691
57	0xbb95627a	-0.0045588585
58	0x3c5478ac	0.012968224
59	0xbcad9a0a	-0.021191616
60	0x3b58b507	0.0033066885
61	0x3c0f9fd0	0.00876613
62	0x3b7e52b4	0.003880662
63	0x3c61da66	0.01378498
64	0xbc580247	-0.013184137
65	0x3c343976	0.011000028
66	0xbd149fea	-0.03628532
67	0x3c62838c	0.0138253085
68	0xbb40905c	-0.002938292
69	0xbd23efc3	-0.040023576
70	0xbc9ce54e	-0.01915231
71	0x3c50a3ae	0.012734337
72	0xbd4eb1ad	-0.050462414
73	0x3bf790bf	0.007555097
74	0x39f5a052	0.0004684949
75	0xbc62ba4a	-0.01383836
76	0xbccd9ffb	-0.025100699
77	0x3cae9b40	0.021314263
78	0x3be48ea4	0.006975012
79	0x3c495d87	0.012290365
80	0x3ca45e24	0.020064421
81	0xbc868c94	-0.016424455
82	0xbc2d63c1	-0.010582865
83	0xbc669588	-0.014073737
84	0x3ba360ac	0.0049858894
85	0xbc47df75	-0.012199272
86	0x3c89734d	0.016778613
87	0xbd2763de	-0.040866725
88	0x3ca9f09b	0.020744612
89	0xbcafc380	-0.021455526
90	0xbbad1992	-0.0052825892
91	0xbcbf8729	-0.02337988
92	0xbd161359	-0.036639545
93	0xba4ce045	-0.0007815401
94	0xbcc2e8c9	-0.023792641
95	0xbc6f2b2c	-0.014597695
96	0x39d79d3a	0.00041125139
97	0xbcb69fd8	-0.022293016
98	0xba5626f1	-0.0008169255
99	0x3c94639e	0.018113907
100	0xbc07eedc	-0.008296695
101	0xbc98da58	-0.018658802
102	0x3cd1a4b0	0.025591224
103	0xbc4f02a6	-0.012634909
104	0x3c1fff29	0.009765425
105	0x3c7aa272	0.015297519
106	0xbc47218a	-0.012153992
107	0xbbdb67d8	-0.0066957287
108	0xbc27bace	-0.010237409
109	0xbc7d3cb5	-0.015456368
110	0xbbaa4bfa	-0.0051970454
111	0x3c1b542a	0.0094805155
112	0x3cfdb479	0.030969845
113	0x3c94e26d	0.018174374
114	0x3beff4f4	0.007322902
115	0xbce93eea	-0.028472383
116	0xbce69338	-0.028146371
117	0x3d018249	0.03161839
118	0x3c8699c9	0.016430752
119	0xbc6205ce	-0.013795329
120	0x3a78401c	0.0009470002
121	0x3d05d866	0.032677077
122	0xbd015c20	-0.031581998
123	0x3c5c9e18	0.013465427
124	0xbc2238c1	-0.0099012265
125	0x3c348db8	0.0110201165
126	0xbb726a98	-0.0036989804
127	0xbbb3c6fa	-0.0054863663
128	0xbd09fd10	-0.033688605
129	0xbd0e04fe	-0.03467273
130	0x3cf70846	0.030155312
131	0x3cbd02dc	0.023072653
132	0x3b71c0f4	0.003688869
133	0xbc7fc58b	-0.015611063
134	0x3cc1aea9	0.023642855
135	0xbd0b00a5	-0.03393616
136	0xbcf572d4	-0.02996198
137	0x3c80849f	0.015688239
138	0xbb8cb521	-0.004294053
139	0x3cbdff7e	0.023193117
140	0xbd26cb53	-0.04072125
141	0xbc8d5447	-0.0172521
142	0x3c9f9b3f	0.019483207
143	0xbbfc7c14	-0.007705221
144	0xbd309db2	-0.04311914
145	0xbd05196d	-0.03249495
146	0x3cc4a83a	0.024005998
147	0xbb17ff70	-0.0023193024
148	0x3cd7327d	0.026269192
149	0x3c8dc260	0.0173046
150	0x3c4e0859	0.012575232
151	0xba344960	-0.0006877389
152	0xbceb20e8	-0.028702214
153	0x390b3bb5	0.00013278316
154	0xbd134d30	-0.035962284
155	0xbd39f4c7	-0.045399453
156	0xbcbe2cf1	-0.02321479
157	0xbce3fff0	-0.027832001
158	0xbcb86e6a	-0.022513587
159	0x3c6a280b	0.014291774
160	0x3b3db1f2	0.0028945175
161	0xbcec5a5d	-0.028851682
162	0xbb17c690	-0.0023159124
163	0x3be384f7	0.006943341
164	0xbd0a688a	-0.033791102
165	0xbaf13bb9	-0.001840464
166	0x3c31f7a3	0.010862264
167	0xbcbeb5b6	-0.023280006
168	0xbd491df0	-0.049100816
169	0x3c120847	0.008913106
170	0xbc705ba5	-0.014670287
171	0x3bd81028	0.006593723
172	0xbae0437f	-0.0017109959
173	0xbc833083	-0.016014343
174	0xbd1a809e	-0.037720315
175	0x3c93350c	0.01796963
176	0x3c46194a	0.01209099
177	0x3bbb57b8	0.005717244
178	0x3c055435	0.008137752
179	0x3c567138	0.013088517
180	0x3cebf6dc	0.028804235
181	0xbc74bc51	-0.014937476
182	0x3c8028a5	0.01564438
183	0xbb4fee59	-0.003172776
184	0xbccb4027	-0.024810864
185	0x3d0d1df8	0.03445241
186	0x3cc254f4	0.02372215
187	0x3cb75eac	0.02238401
188	0x3cbfe3a3	0.023423975
189	0x3cf27408	0.029596344
190	0x3b3c9ca0	0.002877988
191	0xbb9140b5	-0.0044327625
192	0x3cf3b227	0.029748036
193	0x3ca98993	0.020695483
194	0x3d0692e3	0.032854926
195	0x3ccbf132	0.024895284
196	0xbce0457d	-0.027376885
197	0x3be6b347	0.0070404145
198	0xbcde974f	-0.027171759
199	0xbc49870d	-0.012300265
200	0x3b9b3f85	0.0047377967
201	0x3c970190	0.018433362
202	0xbd39fd13	-0.045407366
203	0x3ca40c19	0.0200253
204	0xbd1c6e98	-0.038191408
205	0xbc97e1ba	-0.018540252
206	0xbc00f3fd	-0.007870671
207	0x3c06af2e	0.008220477
208	0xbca7fa89	-0.020505207
209	0xbd0ca5b6	-0.03433772
210	0xbd22f560	-0.03978479
211	0xbd19883b	-0.037483435
212	0xbd3b7436	-0.045765124
213	0x3c62152d	0.013798994
214	0xba604b04	-0.00085561
215	0x3ca1630b	0.019700548
216	0x3bd37792	0.006453463
217	0x3c13e151	0.009025888
218	0x3ca2c5f3	0.01986978
219	0xbcf3a75c	-0.02974289
220	0x3c4db2f4	0.012554873
221	0xbd1eae0b	-0.0387402
222	0xbd0d410d	-0.034485865
223	0xbd119a06	-0.03554728
224	0xbc4329cf	-0.011911823
225	0xbcc75862	-0.024334136
226	0x3cde4143	0.027130729
227	0xbd0779a1	-0.03307498
228	0x3c0b45b6	0.008500507
229	0xbbd7297b	-0.006566224
230	0xbc655ca6	-0.01399914
231	0xbd0da501	-0.034581188
232	0xbcc986b2	-0.02460036
233	0x3cc7ad49	0.024374621
234	0x3ab12814	0.0013515973
235	0x3ac15979	0.0014751396
236	0x3cdd036a	0.026979167
237	0x3c47c336	0.012192538
238	0xbb486ca7	-0.003058234
239	0x3c772aef	0.01508592
240	0x3c71c8f2	0.014757382
241	0x3b93e0e6	0.004512894
242	0xbb739a4e	-0.003717083
243	0xbab2f90f	-0.0013654548
244	0xbcf35edc	-0.029708318
245	0xbc91d0a3	-0.017799681
246	0x3cd7751e	0.026300963
247	0xbad287ed	-0.0016062238
248	0x3d0c81ed	0.034303594
249	0x3cd4c63c	0.025973432
250	0xbc46b4c5	-0.01212806
251	0xbcb50fd6	-0.022102278
252	0xbcbbb854	-0.022915043
253	0x3cad61b2	0.021164749
254	0xbce2d3bd	-0.027688855
255	0xbd11a33e	-0.03555607

extractor.3.bias f4 [48]
0	0xbda858d4	-0.082200676
1	0xbd833b33	-0.06407776
2	0x3eb64df2	0.35606343
3	0xbdcafd00	-0.09911537
4	0x3e4cc19f	0.19995736
5	0xbeb4edb3	-0.353376
6	0xbd726a2c	-0.059183285
7	0xbd122eae	-0.03568905
8	0xbd0c68c2	-0.034279592
9	0xbe8e7d26	-0.27829856
10	0xbdd0e0c2	-0.10199119
11	0xbe1aa8e2	-0.15103486
12	0x3e0d4bca	0.13798442
13	0xbdf91d57	-0.12163799
14	0xbd856035	-0.06512491
15	0xbe28bae1	-0.16477539
16	0xbe791792	-0.24325398
17	0xbaedc65f	-0.0018140784
18	0xbe47e8a7	-0.19522344
19	0xbd1ce8b8	-0.038307875
20	0xbe9280ed	-0.28613988
21	0xbe160958	-0.14652002
22	0xbdde1d9e	-0.10845493
23	0xbd4d6ef2	-0.050154634
24	0xbe021e02	-0.1270676
25	0xbd4741d5	-0.048646767
26	0xbbe3c9ed	-0.0069515617
27	0xbccedb0c	-0.025250934
28	0xbdc56148	-0.096376956
29	0xbd29bb0e	-0.041438155
30	0x3ddc4c97	0.10756796
31	0xbcff466b	-0.031161508
32	0x3d889412	0.06668867
33	0xbe49e89b	-0.19717638
34	0xbe9e6fa1	-0.3094454
35	0xbdb5d6dd	-0.088788725
36	0xbe2c6e6a	-0.16838995
37	0xbd1d127a	-0.0383477
38	0xbd9aa052	-0.0755011
39	0xbdcc30f6	-0.09970276
40	0xbe789724	-0.24276406
41	0xbbef4b75	-0.0073026964
42	0xbe220faa	-0.15826288
43	0xbe0c06b7	-0.13674437
44	0xbc97a4a0	-0.018511117
45	0xbd27369c	-0.040823564
46	0xbd58d26d	-0.052935053
47	0xbc806248	-0.015671864
